…
se_bimemory=False, use_conv=False, use_cuda=False, use_multiturn_infer=False)
Load vocabulary from ./data/vocab...
Vocabulary size: 5451
Load pos vocabulary from ./data/pos_vocab...
POS vocabulary size: 47
Load ner vocabulary from ./data/ner_vocab...
NER vocabulary size: 18
Load relation vocabulary from ./data/rel_vocab...
Rel vocabulary size: 32
Load 1925 examples from ./data/train.json... use 0 seconds
Load 482 examples from ./data/dev.json... use 0 seconds
Load 482 examples from ./data/dev.json... use 0 seconds
Use cuda: False
###########self.args.matching_order:  csm 
MyModel(
  (embedding): Embedding(5451, 300, padding_idx=0)
  (pos_embedding): Embedding(47, 12, padding_idx=0)
  (ner_embedding): Embedding(18, 8, padding_idx=0)
  (rel_embedding): Embedding(32, 10, padding_idx=0)
  (context_rnn): StackedBRNN(
    (rnns): ModuleList(
      (0): LSTM(345, 50, bidirectional=True)
    )
  )
  (Hq_BiLstm): StackedBRNN(
    (rnns): ModuleList(
      (0): LSTM(395, 50, bidirectional=True)
    )
  )
  (hidden_match): SeqDotAttnMatch()
  (mtinfer): MultiTurnInference(
    (cat_linear): Linear(in_features=200, out_features=50, bias=True)
    (sub_linear): Linear(in_features=100, out_features=50, bias=True)
    (mul_linear): Linear(in_features=100, out_features=50, bias=True)
    (inference_rnn): StackedBRNN(
      (rnns): ModuleList(
        (0): LSTM(150, 50, bidirectional=True)
      )
    )
  )
  (q_self_attn): LinearSeqAttn(
    (linear): Linear(in_features=100, out_features=1, bias=True)
  )
  (linearlayer): Linear(in_features=345, out_features=50, bias=True)
  (pre_y): Linear(in_features=145, out_features=1, bias=True)
  (c_infer_linear): Linear(in_features=800, out_features=50, bias=True)
)
Number of parameters:  500175
model <model.Model object at 0x7f58613e4b38>
Trained model will be saved to ./checkpoint/term-best.mdl
Epoch 0...
q_rnn_input tensor([[[-0.3499, -0.2596, -0.0000,  ...,  0.0554, -0.0104, -0.0852],
         [ 0.0000,  0.1960, -0.2330,  ...,  0.0554, -0.0104, -0.0852],
         [ 0.0000,  0.0000,  0.0000,  ...,  0.0554, -0.0104, -0.0852],
…
