…
e_bimemory=False, use_conv=False, use_cuda=False, use_multiturn_infer=False)
Load vocabulary from ./data/vocab...
Vocabulary size: 5451
Load pos vocabulary from ./data/pos_vocab...
POS vocabulary size: 47
Load ner vocabulary from ./data/ner_vocab...
NER vocabulary size: 18
Load relation vocabulary from ./data/rel_vocab...
Rel vocabulary size: 32
Load 1925 examples from ./data/train.json... use 0 seconds
Load 482 examples from ./data/dev.json... use 0 seconds
Load 482 examples from ./data/dev.json... use 0 seconds
Use cuda: False
###########self.args.matching_order:  csm 
dMyModel(
  (embedding): Embedding(5451, 300, padding_idx=0)
  (pos_embedding): Embedding(47, 12, padding_idx=0)
  (ner_embedding): Embedding(18, 8, padding_idx=0)
  (rel_embedding): Embedding(32, 10, padding_idx=0)
  (context_rnn): StackedBRNN(
    (rnns): ModuleList(
      (0): LSTM(345, 250, bidirectional=True)
    )
  )
  (Hq_BiLstm): StackedBRNN(
    (rnns): ModuleList(
      (0): LSTM(690, 250, bidirectional=True)
    )
  )
  (hidden_match): SeqDotAttnMatch()
  (mtinfer): MultiTurnInference(
    (cat_linear): Linear(in_features=1000, out_features=250, bias=True)
    (sub_linear): Linear(in_features=500, out_features=250, bias=True)
    (mul_linear): Linear(in_features=500, out_features=250, bias=True)
    (inference_rnn): StackedBRNN(
      (rnns): ModuleList(
        (0): LSTM(750, 250, bidirectional=True)
      )
    )
  )
  (q_self_attn): LinearSeqAttn(
    (linear): Linear(in_features=500, out_features=1, bias=True)
  )
  (linearlayer): Linear(in_features=345, out_features=345, bias=True)
  (pre_y): Linear(in_features=545, out_features=1, bias=True)
  (c_infer_linear): Linear(in_features=4000, out_features=250, bias=True)
)
Number of parameters:  6707445
model <model.Model object at 0x7f496671bb38>
Trained model will be saved to ./checkpoint/term-best.mdl
Epoch 0...
/home/hd_1T/haiou/testdata/termselect/src/layers.py:227: UserWarning: Implicit dimension choice for softmax has been deprecated. Change the call to include dim=X as an argument.
  alpha_flat = F.softmax(scores.view(-1, y.size(1)))
…
