…
se_bimemory=False, use_conv=False, use_cuda=False, use_multiturn_infer=False)
Load vocabulary from ./data/vocab...
Vocabulary size: 5451
Load pos vocabulary from ./data/pos_vocab...
POS vocabulary size: 47
Load ner vocabulary from ./data/ner_vocab...
NER vocabulary size: 18
Load relation vocabulary from ./data/rel_vocab...
Rel vocabulary size: 32
Load 1924 examples from ./data/train.json... use 0 seconds
Load 482 examples from ./data/dev.json... use 0 seconds
Load 482 examples from ./data/dev.json... use 0 seconds
Use cuda: False
###########self.args.matching_order:  csm 
MyModel(
  (embedding): Embedding(5451, 300, padding_idx=0)
  (pos_embedding): Embedding(47, 12, padding_idx=0)
  (ner_embedding): Embedding(18, 8, padding_idx=0)
  (rel_embedding): Embedding(32, 10, padding_idx=0)
  (context_rnn): StackedBRNN(
    (rnns): ModuleList(
      (0): LSTM(345, 100, bidirectional=True)
    )
  )
  (Hq_BiLstm): StackedBRNN(
    (rnns): ModuleList(
      (0): LSTM(445, 100, bidirectional=True)
    )
  )
  (hidden_match): SeqDotAttnMatch()
  (mtinfer): MultiTurnInference(
    (cat_linear): Linear(in_features=400, out_features=100, bias=True)
    (sub_linear): Linear(in_features=200, out_features=100, bias=True)
    (mul_linear): Linear(in_features=200, out_features=100, bias=True)
    (inference_rnn): StackedBRNN(
      (rnns): ModuleList(
        (0): LSTM(300, 100, bidirectional=True)
      )
    )
  )
  (q_self_attn): LinearSeqAttn(
    (linear): Linear(in_features=200, out_features=1, bias=True)
  )
  (linearlayer): Linear(in_features=345, out_features=100, bias=True)
  (pre_y): Linear(in_features=245, out_features=1, bias=True)
  (c_infer_linear): Linear(in_features=1600, out_features=100, bias=True)
)
Number of parameters:  1396275
model <model.Model object at 0x7fab47c88ba8>
Trained model will be saved to ./checkpoint/term-best.mdl
Epoch 0...
/usr/local/lib/python3.5/dist-packages/torch/nn/functional.py:1332: UserWarning: nn.functional.sigmoid is deprecated. Use torch.sigmoid instead.
  warnings.warn("nn.functional.sigmoid is deprecated. Use torch.sigmoid instead.")
…
